…
lized: ['classifier.bias', 'classifier.weight']\nYou should probably TRAIN this model on a down-stream task to be able to use it for predictions and inference.\n\n\n\n\nCode\n#@markdown Let's take a look at our model and how many parameters we are training\nprint(f'NUMBER OF TRAINABLE PARAMETERS: {trainable_params(model)}')\nprint('\\nModel Information\\n----------------------------')\nmodel\n\n\nNUMBER OF TRAINABLE PARAMETERS: 7737722\n\nModel Information\n----------------------------\n\n\nEsmForTokenClassification(\n  (esm): EsmModel(\n    (embeddings): EsmEmbeddings(\n      (word_embeddings): Embedding(33, 320, padding_idx=1)\n      (dropout): Dropout(p=0.15, inplace=False)\n      (position_embeddings): Embedding(1026, 320, padding_idx=1)\n    )\n    (encoder): EsmEncoder(\n      (layer): ModuleList(\n        (0-5): 6 x EsmLayer(\n          (attention): EsmAttention(\n            (self): EsmSelfAttention(\n              (query): Linear(in_features=320, out_features=320, bias=True)\n              (key): Linear(in_features=320, out_features=320, bias=True)\n              (value): Linear(in_features=320, out_features=320, bias=True)\n              (dropout): Dropout(p=0.0, inplace=False)\n              (rotary_embeddings): RotaryEmbedding()\n            )\n            (output): EsmSelfOutput(\n              (dense): Linear(in_features=320, out_features=320, bias=True)\n              (dropout): Dropout(p=0.15, inplace=False)\n            )\n            (LayerNorm): LayerNorm((320,), eps=1e-05, elementwise_affine=True)\n          )\n          (intermediate): EsmIntermediate(\n            (dense): Linear(in_features=320, out_features=1280, bias=True)\n          )\n          (output): EsmOutput(\n            (dense): Linear(in_features=1280, out_features=320, bias=True)\n            (dropout): Dropout(p=0.15, inplace=False)\n          )\n          (LayerNorm): LayerNorm((320,), eps=1e-05, elementwise_affine=True)\n        )\n      )\n      (emb_layer_norm_after): LayerNorm((320,), eps=1e-05, elementwise_affine=True)\n    )\n    (contact_head): EsmContactPredictionHead(\n      (regression): Linear(in_features=120, out_features=1, bias=True)\n      (activation): Sigmoid()\n    )\n  )\n  (dropout): Dropout(p=0.15, inplace=False)\n  (classifier): Linear(in_features=320, out_features=1, bias=True)\n)\n\n\n\n\n여기서는 대규모 언어 모델(ESM2)을 가져와 리간드 접촉 예측을 위해 튜닝할 추가 레이어를 추가했습니다. 단백질 언어 모델의 모든 파라미터를 직접 미세조정하는 순진한 접근 방식을 시도해 봅시다. 모델이 학습됨에 따라 이 방법의 한계에 대해 생각해 보세요.\n\n\nCode\n%matplotlib inline\nfrom IPython.display import display, clear_output\n#@markdown Run training!!!\n\n# GET DATA\nbatch_size = 32\nmax_crop_len = 512\n\n!wget -qnc https://github.com/sokrypt
…
should probably TRAIN this model on a down-stream task to be able to use it for predictions and inference.\n\n\n\n\nCode\n#@markdown Show trainable parameters and model\nprint(f'NUMBER OF TRAINABLE PARAMETERS: {trainable_params(model)}')\nprint('\\nModel Information\\n----------------------------')\nmodel\n\n\nNUMBER OF TRAINABLE PARAMETERS: 46401\n\nModel Information\n----------------------------\n\n\nPeftModelForSequenceClassification(\n  (base_model): LoraModel(\n    (model): EsmForTokenClassification(\n      (esm): EsmModel(\n        (embeddings): EsmEmbeddings(\n          (word_embeddings): Embedding(33, 320, padding_idx=1)\n          (dropout): Dropout(p=0.15, inplace=False)\n          (position_embeddings): Embedding(1026, 320, padding_idx=1)\n        )\n        (encoder): EsmEncoder(\n          (layer): ModuleList(\n            (0-5): 6 x EsmLayer(\n              (attention): EsmAttention(\n                (self): EsmSelfAttention(\n                  (query): lora.Linear(\n                    (base_layer): Linear(in_features=320, out_features=320, bias=True)\n                    (lora_dropout): ModuleDict(\n                      (default): Dropout(p=0.15, inplace=False)\n                    )\n                    (lora_A): ModuleDict(\n                      (default): Linear(in_features=320, out_features=4, bias=False)\n                    )\n                    (lora_B): ModuleDict(\n                      (default): Linear(in_features=4, out_features=320, bias=False)\n                    )\n                    (lora_embedding_A): ParameterDict()\n                    (lora_embedding_B): ParameterDict()\n                    (lora_magnitude_vector): ModuleDict()\n                  )\n                  (key): lora.Linear(\n                    (base_layer): Linear(in_features=320, out_features=320, bias=True)\n                    (lora_dropout): ModuleDict(\n                      (default): Dropout(p=0.15, inplace=False)\n                    )\n                    (lora_A): ModuleDict(\n                      (default): Linear(in_features=320, out_features=4, bias=False)\n                    )\n                    (lora_B): ModuleDict(\n                      (default): Linear(in_features=4, out_features=320, bias=False)\n                    )\n                    (lora_embedding_A): ParameterDict()\n                    (lora_embedding_B): ParameterDict()\n                    (lora_magnitude_vector): ModuleDict()\n                  )\n                  (value): lora.Linear(\n                    (base_layer): Linear(in_features=320, out_features=320, bias=True)\n                    (lora_dropout): ModuleDict(\n                      (default): Dropout(p=0.15, inplace=False)\n                    )\n                    (lora_A): ModuleDict(\n                      (default): Linear(in_features=320, out_features=4, bias=False)\n                    )\n                    (lora_B): ModuleDict(\n                      (default): Linear(in_features=4, out_features=320, bias=False)\n                    )\n                    (lora_embedding_A): ParameterDict()\n                    (lora_embedding_B): ParameterDict()\n                    (lora_magnitude_vector): ModuleDict()\n                  )\n                  (dropout): Dropout(p=0.0, inplace=False)\n                  (rotary_embeddings): RotaryEmbedding()\n                )\n                (output): EsmSelfOutput(\n                  (dense): Linear(in_features=320, out_features=320, bias=True)\n                  (dropout): Dropout(p=0.15, inplace=False)\n                )\n                (LayerNorm): LayerNorm((320,), eps=1e-05, elementwise_affine=True)\n              )\n              (intermediate): EsmIntermediate(\n                (dense): Linear(in_features=320, out_features=1280, bias=True)\n              )\n              (output): EsmOutput(\n                (dense): Linear(in_features=1280, out_features=320, bias=True)\n                (dropout): Dropout(p=0.15, inplace=False)\n              )\n              (LayerNorm): LayerNorm((320,), eps=1e-05, elementwise_affine=True)\n            )\n          )\n          (emb_layer_norm_after): LayerNorm((320,), eps=1e-05, elementwise_affine=True)\n        )\n        (contact_head): EsmContactPredictionHead(\n          (regression): Linear(in_features=120, out_features=1, bias=True)\n          (activation): Sigmoid()\n        )\n      )\n      (dropout): Dropout(p=0.15, inplace=False)\n      (classifier): ModulesToSaveWrapper(\n        (original_module): Linear(in_features=320, out_features=1, bias=True)\n        (modules_to_save): ModuleDict(\n          (default): Linear(in_features=320, out_features=1, bias=True)\n        )\n      )\n    )\n  )\n)\n\n\n\n\nCode\n#@markdown &lt;font color='#e59454'&gt;Question Time! Run to Show Question\n\nimport random\nfrom IPython.display import display, HTML\n\ndef create_quiz(question, correct_answers, decoy_answers):\n    # Combine the correct answers with the decoy answers\n    answers = correct_answers + decoy_answers\n   
…
